…
        "val_loss": 1.3076149582862855,
        "val_binary_accuracy": 0.5562032401561737,
        "val_auc": 0.5640849143266677,
        "val_precision": 0.5561998426914215,
        "val_recall": 0.5562217891216278,
        "f1_score": 0.8231910645737408,
        "val_f1_score": 0.5562108156900394
    },
    "model_summary": [
        "Model: \"sequential_5\"",
        "_________________________________________________________________",
        "Layer (type)                 Output Shape              Param #   ",
        "=================================================================",
        "conv2d_10 (Conv2D)           (None, 42, 31, 32)        896       ",
        "_________________________________________________________________",
        "batch_normalization_10 (Batc (None, 42, 31, 32)        128       ",
        "_________________________________________________________________",
        "max_pooling2d_10 (MaxPooling (None, 20, 15, 32)        0         ",
        "_________________________________________________________________",
        "conv2d_11 (Conv2D)           (None, 20, 15, 16)        4624      ",
        "_________________________________________________________________",
        "batch_normalization_11 (Batc (None, 20, 15, 16)        64        ",
        "_________________________________________________________________",
        "max_pooling2d_11 (MaxPooling (None, 9, 7, 16)          0         ",
        "_________________________________________________________________",
        "flatten_5 (Flatten)          (None, 1008)              0         ",
        "_________________________________________________________________",
        "dense_15 (Dense)             (None, 128)               129152    ",
        "_________________________________________________________________",
        "dropout_10 (Dropout)         (None, 128)               0         ",
        "_________________________________________________________________",
        "dense_16 (Dense)             (None, 64)                8256      ",
        "_________________________________________________________________",
        "dropout_11 (Dropout)         (None, 64)                0         ",
        "_________________________________________________________________",
        "dense_17 (Dense)             (None, 2)                 130       ",
        "=================================================================",
        "Total params: 143,250",
        "Trainable params: 143,154",
        "Non-trainable params: 96",
        "_________________________________________________________________"
    ],
    "params": {
        "k": 5,
        "batch_size": 384,
        "transform_bool": true,
        "nb_transformations": 16,
…
