…
        "val_recall": 0.6065401554107666,
        "f1_score": 0.7516583857062538,
        "val_f1_score": 0.606588768042788
    },
    "ensemble": {
        "mode_binary_accuracy": 0.44549763033175355,
        "mean_binary_accuracy": 0.44549763033175355,
        "evaluated_on": "training dataset"
    },
    "model_summary": [
        "Model: \"sequential_5\"",
        "_________________________________________________________________",
        "Layer (type)                 Output Shape              Param #   ",
        "=================================================================",
        "conv2d_10 (Conv2D)           (None, 42, 31, 16)        448       ",
        "_________________________________________________________________",
        "dropout_15 (Dropout)         (None, 42, 31, 16)        0         ",
        "_________________________________________________________________",
        "batch_normalization_10 (Batc (None, 42, 31, 16)        64        ",
        "_________________________________________________________________",
        "max_pooling2d_10 (MaxPooling (None, 20, 15, 16)        0         ",
        "_________________________________________________________________",
        "conv2d_11 (Conv2D)           (None, 20, 15, 8)         1160      ",
        "_________________________________________________________________",
        "batch_normalization_11 (Batc (None, 20, 15, 8)         32        ",
        "_________________________________________________________________",
        "max_pooling2d_11 (MaxPooling (None, 9, 7, 8)           0         ",
        "_________________________________________________________________",
        "flatten_5 (Flatten)          (None, 504)               0         ",
        "_________________________________________________________________",
        "dense_15 (Dense)             (None, 128)               64640     ",
        "_________________________________________________________________",
        "dropout_16 (Dropout)         (None, 128)               0         ",
        "_________________________________________________________________",
        "dense_16 (Dense)             (None, 64)                8256      ",
        "_________________________________________________________________",
        "dropout_17 (Dropout)         (None, 64)                0         ",
        "_________________________________________________________________",
        "dense_17 (Dense)             (None, 2)                 130       ",
        "=================================================================",
        "Total params: 74,730",
        "Trainable params: 74,682",
        "Non-trainable params: 48",
        "_________________________________________________________________"
    ],
    "params": {
        "k": 5,
        "batch_size": 384,
        "transform_bool": true,
        "nb_transformations": 16,
        "shuffle": true,
…
