…
        "val_loss": 2.987268873623439,
        "val_binary_accuracy": 0.5136860907077789,
        "val_auc": 0.5030695753438132,
        "val_precision": 0.5137078932353428,
        "val_recall": 0.5136799003396716,
        "f1_score": 0.9698427147454706,
        "val_f1_score": 0.5136938964061506
    },
    "model_summary": [
        "Model: \"sequential\"",
        "_________________________________________________________________",
        "Layer (type)                 Output Shape              Param #   ",
        "=================================================================",
        "conv2d (Conv2D)              (None, 42, 31, 32)        896       ",
        "_________________________________________________________________",
        "batch_normalization (BatchNo (None, 42, 31, 32)        128       ",
        "_________________________________________________________________",
        "max_pooling2d (MaxPooling2D) (None, 20, 15, 32)        0         ",
        "_________________________________________________________________",
        "conv2d_1 (Conv2D)            (None, 20, 15, 32)        9248      ",
        "_________________________________________________________________",
        "batch_normalization_1 (Batch (None, 20, 15, 32)        128       ",
        "_________________________________________________________________",
        "max_pooling2d_1 (MaxPooling2 (None, 9, 7, 32)          0         ",
        "_________________________________________________________________",
        "conv2d_2 (Conv2D)            (None, 9, 7, 16)          4624      ",
        "_________________________________________________________________",
        "batch_normalization_2 (Batch (None, 9, 7, 16)          64        ",
        "_________________________________________________________________",
        "max_pooling2d_2 (MaxPooling2 (None, 4, 3, 16)          0         ",
        "_________________________________________________________________",
        "flatten (Flatten)            (None, 192)               0         ",
        "_________________________________________________________________",
        "dense (Dense)                (None, 128)               24704     ",
        "_________________________________________________________________",
        "dropout (Dropout)            (None, 128)               0         ",
        "_________________________________________________________________",
        "dense_1 (Dense)              (None, 64)                8256      ",
        "_________________________________________________________________",
        "dropout_1 (Dropout)          (None, 64)                0         ",
        "_________________________________________________________________",
        "dense_2 (Dense)              (None, 2)                 130       ",
        "=================================================================",
        "Total params: 48,178",
        "Trainable params: 48,018",
        "Non-trainable params: 160",
        "_________________________________________________________________"
    ],
    "params": {
        "k": 7,
        "batch_size": 320,
        "transform_bool": false,
        "nb_transformations": 16,
…
