…
        "precision": 0.7561846733093261,
        "recall": 0.7559821963310241,
        "val_loss": 0.8410027176141739,
        "val_binary_accuracy": 0.6041481167078018,
        "val_auc": 0.6172903791069985,
        "val_precision": 0.6035853832960129,
        "val_recall": 0.6052175998687744
    },
    "model_summary": [
        "Model: \"sequential_10\"",
        "_________________________________________________________________",
        "Layer (type)                 Output Shape              Param #   ",
        "=================================================================",
        "conv2d_20 (Conv2D)           (None, 42, 31, 16)        448       ",
        "_________________________________________________________________",
        "batch_normalization_20 (Batc (None, 42, 31, 16)        64        ",
        "_________________________________________________________________",
        "max_pooling2d_20 (MaxPooling (None, 20, 15, 16)        0         ",
        "_________________________________________________________________",
        "conv2d_21 (Conv2D)           (None, 20, 15, 8)         1160      ",
        "_________________________________________________________________",
        "batch_normalization_21 (Batc (None, 20, 15, 8)         32        ",
        "_________________________________________________________________",
        "max_pooling2d_21 (MaxPooling (None, 9, 7, 8)           0         ",
        "_________________________________________________________________",
        "flatten_10 (Flatten)         (None, 504)               0         ",
        "_________________________________________________________________",
        "dense_30 (Dense)             (None, 128)               64640     ",
        "_________________________________________________________________",
        "dropout_10 (Dropout)         (None, 128)               0         ",
        "_________________________________________________________________",
        "dense_31 (Dense)             (None, 64)                8256      ",
        "_________________________________________________________________",
        "dense_32 (Dense)             (None, 2)                 130       ",
        "=================================================================",
        "Total params: 74,730",
        "Trainable params: 74,682",
        "Non-trainable params: 48",
        "_________________________________________________________________"
    ],
    "params": {
        "k": 10,
        "batch_size": 256,
        "transform_bool": true,
        "nb_transformations": 16,
        "shuffle": true,
…
